Total files :  4600
Model: "sequential"
_________________________________________________________________
Layer (type)                 Output Shape              Param #   
=================================================================
conv3d (Conv3D)              (None, 98, 30, 30, 32)    896       
_________________________________________________________________
max_pooling3d (MaxPooling3D) (None, 49, 15, 15, 32)    0         
_________________________________________________________________
conv3d_1 (Conv3D)            (None, 47, 13, 13, 64)    55360     
_________________________________________________________________
max_pooling3d_1 (MaxPooling3 (None, 23, 6, 6, 64)      0         
_________________________________________________________________
flatten (Flatten)            (None, 52992)             0         
_________________________________________________________________
dense (Dense)                (None, 256)               13566208  
_________________________________________________________________
dense_1 (Dense)              (None, 12)                3084      
=================================================================
Total params: 13,625,548
Trainable params: 13,625,548
Non-trainable params: 0
_________________________________________________________________
Train on 14720 samples, validate on 3681 samples
Epoch 1/100
14720/14720 - 110s - loss: 0.6630 - accuracy: 0.8063 - val_loss: 0.2638 - val_accuracy: 0.9204
Epoch 2/100
14720/14720 - 99s - loss: 0.2149 - accuracy: 0.9302 - val_loss: 0.1896 - val_accuracy: 0.9362
…
